p1_navigation/checkpoint.pth (torch_old, 28391 bytes, 6 tensors)

fc1.weight f4 [64, 37]
000000 34 41 1e be fb 2c 1b 3e 29 1e 25 bf d9 36 21 3e
       -0.1545456 0.15153877 -0.64499146 0.15743579
000010 1b 75 5a be 99 c7 24 3e fe d8 2b be 41 9b f2 3c
       -0.21333735 0.16091765 -0.16781995 0.029615046
000020 8d 76 fb be f0 d9 4c 3d 61 f4 49 3d ec 02 fc bd
       -0.49113885 0.05001253 0.049305324 -0.12305245
000030 51 1b 55 be 63 86 1f bd 6e 81 0a bf a9 ef 34 be
       -0.20811202 -0.03894652 -0.54103744 -0.17669548
000040 ba 23 69 be bc 97 cd 3e 12 94 bd bd 37 cd 0a 3e
       -0.22767535 0.40154827 -0.09256758 0.13554846
000050 73 c1 af bd 13 4b 76 3e a8 d1 74 bd 52 32 2d 3e
       -0.085818194 0.24052076 -0.059770256 0.16913727
000060 db ec 4a 3d d1 62 1e bd da 6c 9e bd 3d 8e 22 be
       0.04954229 -0.038668457 -0.077356055 -0.15874572
000070 b2 de 8c 3d ca fc 25 bf ef 15 7e be 92 09 7e 3c
       0.06878413 -0.6483885 -0.24813055 0.015505211
000080 bf 26 f8 3d cf 98 fd 3c 06 31 80 bd 1d e6 f6 bd
       0.12116765 0.030956654 -0.062593505 -0.120556094
000090 32 b5 3c bd 3b 20 2f 3e 55 a5 92 3d 31 74 ca 3d
       -0.04607124 0.17102139 0.07160441 0.09885443
0000a0 66 4d a1 3d 94 90 04 be e8 98 b7 3e 1e 25 35 bf
       0.07876091 -0.12945777 0.35858846 -0.7075976
0000b0 55 e7 95 be 3d 5a 37 bf 5c 82 05 c0 5e 8f ee 3d
       -0.29278055 -0.7162207 -2.0860815 0.11648439
0000c0 3a 50 23 3d f0 f6 97 3b 8e 83 ad 3b 54 3a 26 be
       0.039871432 0.0046375915 0.0052952236 -0.16233188
0000d0 45 7c 76 3d 82 8f 55 3d e4 ff 5a 3d cb ca 64 3e
       0.060177106 0.052138813 0.053466693 0.22342984
0000e0 68 22 1c 3e 57 a8 5d bc 00 d5 cf bd 02 88 2a be
       0.152475 -0.013528905 -0.101480484 -0.16653445
0000f0 f8 56 91 3d ae 1f 97 bd bb ff 46 bd b4 b4 19 3e
       0.07096666 -0.07379089 -0.048583727 0.15010339
000100 19 44 4a bc 34 74 2b 3d c9 73 6b 3e e7 d9 97 3d
       -0.012345337 0.041858867 0.22993387 0.074146084
000110 27 ac 82 3d 77 08 9e 3d 8b 34 49 3e e1 06 69 3e
       0.06380492 0.07716458 0.1964895 0.2275653
000120 b8 b1 68 bc 3c 58 37 3c cc e3 2a 3d d1 85 ca 3d
       -0.014202528 0.01119047 0.04172115 0.09888805
000130 a9 34 60 3c 36 bf 82 3d 01 f9 a8 3e 6d dc 62 bf
       0.01368443 0.06384127 0.33002475 -0.88617593
000140 d1 d1 ff 3c 26 cc d7 3e 15 5c 8f bd d1 d1 5e bf
       0.031227978 0.4214794 -0.06999985 -0.87038904
000150 b5 24 8a 3c 0e 6c 7e 3d a9 15 af bc 22 f8 d9 bd
       0.016863206 0.062114768 -0.021372633 -0.10643031
000160 eb b8 02 be d8 d1 31 be 27 8e d9 3e d2 e3 cb bc
       -0.12765853 -0.17365205 0.42491266 -0.024888907
000170 bd 54 90 3d 44 04 1f be e6 69 d3 bd 8f e2 78 3e
       0.070474125 -0.15528971 -0.10322933 0.24305175
000180 11 23 be bd a8 46 c4 3d 4b 01 be bc 0f 11 11 bf
       -0.09284032 0.09583789 -0.023193976 -0.56666654
000190 52 f7 75 3e cc ce a7 3e 5b 36 78 be 8d f3 86 be
       0.24020126 0.3277496 -0.24239485 -0.2635769
0001a0 9c 6b 1e be 08 c4 dd bd 3e a1 a6 3d 91 eb 23 3e
       -0.15470737 -0.108284056 0.08136223 0.1600783
0001b0 fa a5 03 bf 02 ed c7 bb bb ec dc bc be f6 ba bd
       -0.51425135 -0.0061012516 -0.02696835 -0.091290936
0001c0 a8 84 74 be ee a8 88 3e 1a 06 83 be 30 f8 07 bf
       -0.2387873 0.26691383 -0.25590593 -0.5311308
0001d0 fb d7 2e 3d 4a 60 27 bf 76 b1 ff be 5d 0d d1 bd
       0.042686444 -0.653813 -0.4994008 -0.10207627
0001e0 07 17 78 3d 29 4d fb 3c 86 40 02 bf 11 d9 50 bf
       0.060568836 0.030676441 -0.50879705 -0.8158122
0001f0 d4 73 31 3d f7 a7 2f bf f9 3e 08 3e 22 3a 06 bf
       0.043323353 -0.6861567 0.13305272 -0.52432454
000200 c6 a5 26 bf 84 d2 00 be fd 34 35 be 53 57 9e bd
       -0.650967 -0.12580305 -0.17695995 -0.077314995
000210 3d 72 00 bf 39 e1 9c 3e 4a aa bb be 4c b4 4f be
       -0.50174314 0.3064058 -0.36653358 -0.20283622
000220 68 5b 29 be 46 ca 14 be 14 f1 81 bd c1 89 f6 3e
       -0.16538775 -0.14530286 -0.0634481 0.48151973
000230 a8 db 25 be ff 88 9a 3e 6f 63 8f be cf 63 02 bf
       -0.16197073 0.30182645 -0.2800555 -0.50933546
000240 4d 27 ff be b5 ca b5 be 42 40 04 3e ae 15 d4 bd
       -0.49834672 -0.35506216 0.12915137 -0.103556976
000250 59 94 8f 3c 8a 3b 9d be 02 dc 96 be 66 59 3a bc
       0.017526792 -0.30709487 -0.29464728 -0.011373853
000260 51 a9 3b bf 8c cf f8 3d b6 ae 18 bf 03 5c 37 3c
       -0.7330523 0.121489614 -0.5964159 0.011191371
000270 16 93 b4 be b3 62 ea bf a8 35 a8 bd 69 38 d1 3c
       -0.35268468 -1.8311371 -0.08213359 0.025539594
000280 d8 80 90 3c 02 06 88 be 25 d2 b4 be 60 02 91 bd
       0.017639562 -0.26567084 -0.35316578 -0.07080531
000290 5b d9 1b be 0b c0 1d 3d 89 88 86 be 2a 29 53 3e
       -0.15219633 0.038513225 -0.26276043 0.20621172
0002a0 c8 80 b5 be 1c c9 31 bc 08 fe 7a 3e 0a 67 e6 3d
       -0.35449815 -0.010851171 0.24510968 0.11250122
0002b0 9f 95 a7 3e c9 56 79 be 27 85 29 3e 93 1b 58 3e
       0.3273134 -0.24349512 0.165547 0.21104269
0002c0 42 c4 d6 bd ab 48 92 3d 07 2f 51 3e 88 50 41 be
       -0.10486652 0.071427666 0.20428096 -0.18878376
0002d0 d6 ce 1c 3c eb 7a 80 be 29 1b bc 3e 44 fa bc 3d
       0.009570798 -0.2509378 0.36739472 0.09227422
0002e0 dd 6a 02 bd e0 1e f7 3c e4 1e bc 3d 37 49 eb 3b
       -0.031840194 0.03016609 0.091855794 0.0071803587
0002f0 63 6e f5 3d 2c 65 9e bc 4c 8d fe 3e 1f c4 83 be
       0.11983945 -0.019335352 0.49717176 -0.25735566
000300 8b 2c 91 be 46 a6 0b bf ad 57 2d c0 41 2b 57 bd
       -0.28354296 -0.5455059 -2.7084763 -0.052531485
000310 d5 9a 2d 3d 4f 46 17 3d 7f 55 89 3d 15 db cb 3d
       0.042383987 0.036932286 0.0670576 0.09953896
000320 6e 18 39 3d ec 36 2c 3e 3d fe 04 3d ab e0 96 3d
       0.045189314 0.16817826 0.032469023 0.07367071
000330 ef c4 9e 3c 63 2a 9f 3d 42 38 40 3e 31 04 d6 3d
       0.019381015 0.077717565 0.1877146 0.10450018
000340 da 27 64 3e 52 f7 34 3d d0 51 e3 3b 77 9f 96 3d
       0.22280827 0.044181176 0.006937243 0.07354634
000350 1c e5 c4 3d 91 4b f9 3d 57 a9 e0 3d f8 87 34 3d
       0.09614012 0.12172616 0.10969799 0.044074982
000360 b1 91 24 3d 0c df 47 bd 65 e4 26 3e dc 5a 81 3c
       0.040178005 -0.0487967 0.16298063 0.015790395
000370 63 cb b7 3a 77 1a 91 3b 35 e2 5a bf eb a6 59 be
       0.0014022406 0.0044282037 -0.85501415 -0.2125508
000380 c6 93 82 3e 4a 7f 3e 3d 3f e8 2b bf 49 46 57 be
       0.25503367 0.04650811 -0.67151254 -0.21022905
000390 66 4e c8 3d d8 d2 cf bb 71 bf ea be 60 20 c7 3e
       0.09780578 -0.006342273 -0.45849183 0.38891888
0003a0 0d 35 da bd 54 38 29 3e 90 1b 96 3d ca d3 76 be
       -0.1065465 0.16525394 0.07329476 -0.24104229
0003b0 92 d3 4f 3e 9f 8e a3 be 5e 9b 00 bd 4f f0 07 3e
       0.20295551 -0.3194475 -0.03139817 0.13275264
0003c0 cb 17 58 3d f4 95 18 bd 27 fd 23 be d1 e2 f8 3c
       0.052757066 -0.03725238 -0.16014539 0.030381592
0003d0 f4 c6 4f 3e b0 1e 1a bf 70 ab 62 3e 0b 66 00 bf
       0.20290738 -0.60203075 0.2213571 -0.50155705
0003e0 73 af 24 bd b9 6b 38 3e da c0 e0 be df 9b b5 bd
       -0.040206384 0.18009843 -0.43897134 -0.08867621
0003f0 7a 6e bb bd d9 f6 8a bd 15 83 69 bc af 63 ce 3c
       -0.09151931 -0.06785364 -0.014252444 0.025194017

fc1.bias f4 [64]
000000 f1 a4 f4 3c e4 4b aa 3c be f4 af bd 40 72 ab bd
       0.029863806 0.02078814 -0.08591603 -0.08371401
000010 a8 37 03 3e 74 23 40 3d 51 1d 2b be 0d 4b 07 3e
       0.128142 0.04690881 -0.16710402 0.13212223
000020 02 81 88 bc d1 6d 85 be e4 ce b5 3d f9 23 97 3e
       -0.016663078 -0.26060346 0.08877352 0.29519632
000030 df 45 42 bc f6 99 98 bd f1 b8 09 be e3 89 09 be
       -0.011857479 -0.07451241 -0.13449456 -0.13431506
000040 a6 86 f2 3c d3 81 99 bd 97 ee 67 bd 7c 09 53 be
       0.029605221 -0.07495465 -0.05662402 -0.20609087
000050 5d 34 4d be a2 eb de bc fb 72 2f 3c be dc cf bd
       -0.20039506 -0.027211968 0.010708566 -0.10149525
000060 23 09 4e be 61 43 22 3e 30 5c a0 bd 3a 4b 3f be
       -0.20120673 0.15846016 -0.07830083 -0.1868104
000070 53 63 5a 3e 48 ef 6a 3d f5 88 51 3d ec 7c 2c be
       0.21326952 0.057357103 0.051156003 -0.16844529
000080 39 1b b5 3d 57 dc c0 bc 3d 83 5a be 81 94 99 bc
       0.08843083 -0.023542566 -0.21339126 -0.01874757
000090 b5 ff 91 bd 83 e9 9a 3c e9 92 cf bd c0 26 4a be
       -0.0712885 0.018910175 -0.10135443 -0.19741344
0000a0 64 bf 3b be 4c 3a cb bd ba b3 21 be b2 d0 31 3e
       -0.18334728 -0.099232286 -0.15791216 0.17364767
0000b0 3e b7 8b bd 5f 0f a5 bd fa bb a6 bd 33 d6 34 be
       -0.0682206 -0.080595724 -0.081413224 -0.17659836
0000c0 6a a7 b1 bd bb 3b 29 3d 5b 69 55 be 55 3a 27 3e
       -0.0867451 0.04131673 -0.20840971 0.16330846
0000d0 15 7b 0d be 51 54 f2 bd 1e 7e 23 be 24 0c c5 bd
       -0.13816483 -0.11832488 -0.15966079 -0.09621456
0000e0 96 3e 24 3e a6 cb 00 be 82 a9 db bd eb 89 37 be
       0.160395 -0.12577686 -0.107256904 -0.17923705
0000f0 55 06 b0 bd ad 48 87 3d f1 a9 90 3b d6 fa a4 bd
       -0.08594958 0.06605659 0.00441479 -0.08055656

fc2.weight f4 [64, 64]
000000 10 5b 0c 3e dd 7c 8d be 6b 28 92 bd a9 e4 7c be
       0.13706613 -0.27634326 -0.07136615 -0.24696602
000010 52 0c 88 bd 88 91 d0 be cd 15 fe bd ec 39 6a 3e
       -0.06642975 -0.40736032 -0.12406502 0.22873658
000020 46 93 16 be 4a 2c 0b 3e 42 f9 9f 3e 9c 45 36 be
       -0.14704618 0.13591114 0.31244856 -0.17799991
000030 89 df 20 bd 95 8b 58 3e 23 7b 0c bc e3 b2 42 3e
       -0.03927568 0.21146996 -0.00857428 0.19013552
000040 20 cd fc 3d 93 81 02 3e 56 25 4c bc ea bc f3 bd
       0.12343812 0.12744741 -0.012460073 -0.11901267
000050 21 f7 de bd 38 dd 04 bd 31 54 c7 3e 59 e6 22 bd
       -0.1088698 -0.032437533 0.3893142 -0.039770458
000060 51 40 66 be 7b dd 47 bd a1 6e fa bd cc 7e 57 be
       -0.22485472 -0.048795205 -0.12228132 -0.21044463
000070 1c 60 ab be 5a 3e 52 be df 61 96 3e 87 d6 2f 3e
       -0.33471763 -0.20531598 0.29371545 0.1717168
000080 35 d3 33 3d a4 11 98 3d 8f 52 78 3d 8e 8d b5 bd
       0.043902595 0.0742524 0.06062561 -0.0886489
000090 f2 5c 1a bf 5f 6d 12 be 4b b2 2a be 04 2e 55 bc
       -0.60298073 -0.14299534 -0.16669576 -0.013011459
0000a0 0d 8f 19 3d 8a 05 c9 bd 2a f7 3b 3e ec 7d 05 bc
       0.03748994 -0.098155096 0.18356004 -0.008147698
0000b0 15 22 06 ba 7a ff c4 3d e0 70 be bd 9e 7c 9d 39
       -0.0005116773 0.09619041 -0.09298873 0.0003003822
0000c0 1b 6c 76 be a2 4b b8 be bb d3 e4 bd d0 89 ee be
       -0.24064676 -0.35995203 -0.11173197 -0.46589518
0000d0 96 d1 9d be 98 53 a9 3d 87 43 e2 bd fa 67 8f 3d
       -0.30823964 0.08267897 -0.11048036 0.07002254
0000e0 ff da a2 bd cf 83 1d be 40 d7 bb bd 7c 86 ac 3d
       -0.079519264 -0.15382312 -0.09171915 0.08424088
0000f0 9a ca 41 3c 56 1a 53 3f 43 f4 31 be 99 df 9a bc
       0.011828089 0.8246206 -0.17378335 -0.018905448
000100 fd 2d a0 bd 30 9b 38 3e ab 9d 23 bf 96 91 58 3e
       -0.078212716 0.1802795 -0.6391246 0.21149287
000110 27 84 0f 3e eb 01 a9 3e 7b ae df bc d2 93 d2 3b
       0.14015256 0.33009276 -0.027304878 0.006426313
000120 52 d4 95 bd a7 ad 66 3d 7d c8 20 ba 5d 37 c2 3e
       -0.073158875 0.05631795 -0.00061333907 0.37932864
000130 e3 d6 70 3d 9f 8a f0 3b 29 a4 1a 3d 66 09 51 be
       0.058798682 0.0073407437 0.03775421 -0.20413741
000140 9f a1 e3 3d c3 08 1b 3d fe b5 8f be 21 c2 42 bd
       0.11114811 0.037850153 -0.28068537 -0.047548417
000150 11 bb 12 3c 9a 59 68 be 56 65 59 be 4f 0d a7 bc
       0.008955733 -0.2269043 -0.21230063 -0.020392088
000160 99 04 5b 3b 6a 8c d3 3b 13 2c 50 3d 69 57 2e be
       0.0033419488 0.0064559476 0.050823282 -0.17025532
000170 0e b6 b4 bd 74 ea 36 bd 0a e4 ed be 44 a5 de bd
       -0.08823787 -0.044657186 -0.46463042 -0.10871366
000180 7c 0f 2c be 2d 67 ff bb 30 62 17 3d 51 fe 41 be
       -0.16802782 -0.007794282 0.036958873 -0.1894467
000190 d0 80 51 be 2d cf 90 3c cc 46 63 3e d7 38 99 bd
       -0.20459294 0.017676914 0.22194976 -0.074815445
0001a0 cc 0f 94 3d 66 7e 4f 3d 74 0e 17 be a4 68 3f be
       0.072295755 0.050657652 -0.14751607 -0.18692261
0001b0 83 f7 17 bd aa ae 04 be e2 e4 e1 bc e8 60 5f be
       -0.03710128 -0.12957254 -0.02757496 -0.2181431
0001c0 74 14 17 bd ac f5 ec bd cd b1 b6 3d 05 ff da 3e
       -0.03688474 -0.11570296 0.089206316 0.4277269
0001d0 7f 96 62 3d 24 58 9e bd fb 5b 8a bb 94 46 8f 3b
       0.055319306 -0.07731655 -0.0042223907 0.0043724272
0001e0 f4 2f 6c bd 2e 7e 9b bd b7 0e 18 3d 51 f0 a0 bd
       -0.05766292 -0.07592426 0.03712341 -0.07858337
0001f0 27 e5 3b be 09 77 5a be e3 b9 24 3c c1 27 45 bd
       -0.18349133 -0.21334471 0.0100540845 -0.048133615
000200 fe bd 2a be 15 39 87 3d c4 0c 65 3e 29 9b aa bb
       -0.16674039 0.066026844 0.22368151 -0.005206485
000210 52 6c eb be 84 50 df be 0b 21 d7 bd 27 90 b8 3c
       -0.4598108 -0.43616116 -0.10504349 0.022529675
000220 1a 95 84 bc 00 e4 2b be 47 4b 70 bd 54 23 10 be
       -0.016184378 -0.16786194 -0.05866554 -0.14075977
000230 eb 37 e4 3b 75 5e a2 3e 5c 38 17 be 8d 28 d1 be
       0.0069646738 0.3171269 -0.14767593 -0.4085125
000240 aa 68 bd be f2 cc 00 be 3b 14 4a be 80 2f 14 3e
       -0.36993915 -0.1257818 -0.1973428 0.14471245
000250 68 dd 94 3b 33 2f af be 7b d7 90 be 16 e4 8f bd
       0.0045429952 -0.34215698 -0.282894 -0.07025926
000260 da f5 2e be 34 b0 97 3e 2a 83 b2 3e eb 47 15 bd
       -0.17085972 0.2962662 0.34865695 -0.03644554
000270 f3 d2 1c be ae 38 0d bb 8c f3 ed bd 9d ef 71 be
       -0.15314846 -0.0021548676 -0.116187185 -0.23626561
000280 dd e1 ed bc 03 3b 4c be ed 96 6f bc e3 dd 3c be
       -0.029038364 -0.19944386 -0.014623386 -0.18444018
000290 a8 b1 2a 3e 10 67 e1 bd 15 04 6e be 38 bf 33 bd
       0.16669333 -0.11005986 -0.23243745 -0.043883532
0002a0 83 e6 88 be 7b 35 5c be bb 98 f2 be 75 a8 d4 be
       -0.26738366 -0.21504776 -0.4738215 -0.41534773
0002b0 56 e4 51 be f4 b8 09 be 97 01 29 bf 91 31 b3 be
       -0.2049726 -0.1344946 -0.6601805 -0.34998754
0002c0 36 77 c5 be 00 05 b8 be 0b 03 29 bf 68 1a 08 bf
       -0.38567513 -0.35941315 -0.6602027 -0.5316529
0002d0 6c 07 20 be 34 81 85 3e e2 d7 cf be 8c 33 41 bf
       -0.15627831 0.26075137 -0.40594393 -0.7546928
0002e0 a0 bb e0 3d 2a 32 bd be da 8c ef bb 43 ca 4e 3e
       0.10973287 -0.36952335 -0.007310492 0.20194344
0002f0 87 92 49 be 5c 9f 4a 3e 59 97 a5 3e 3b 5e 11 be
       -0.19684802 0.19787353 0.32342032 -0.14196102
000300 cc b2 14 3e 06 23 28 bd 57 74 b5 3e 55 e1 f0 bc
       0.1452133 -0.041049026 0.35440323 -0.029404322
000310 bc ec 20 be b6 4d 87 3d fe 74 c3 be d1 43 a2 bd
       -0.15715307 0.06606619 -0.38175195 -0.07923091
000320 ee ae 9e be f0 dd e9 3d a0 2e 03 bf 09 bd a5 bb
       -0.30992836 0.11419284 -0.5124302 -0.005057935
000330 95 0f 25 be 8f e2 c0 3d ad 95 63 bf e1 a8 02 bf
       -0.16119225 0.094182126 -0.8890026 -0.5103894
000340 dc 47 53 bd 69 76 13 bf 8e 60 f0 bd 6c 11 54 be
       -0.051582202 -0.57602555 -0.11737166 -0.20709771
000350 1d 84 aa bd 59 2f e5 be f7 eb 1f bf 72 97 93 3e
       -0.0832598 -0.44762686 -0.6246943 0.2882648
000360 4e 56 d4 be 2e 26 72 bd d7 01 df 3e b4 bd 87 be
       -0.41472095 -0.059118442 0.4355609 -0.2651192
000370 67 81 d4 bd de de 37 bf 4d 28 e9 3d 83 51 54 be
       -0.10376244 -0.71824443 0.1138464 -0.20734219
000380 e6 ea 4d be 54 30 9b be 32 8b c9 bd fa e0 48 3e
       -0.20109138 -0.3031031 -0.098410025 0.19617072
000390 0c ee f7 3d 10 35 bc 3e 8a 4d b0 be 25 2d 58 bf
       0.12105951 0.36759233 -0.34434158 -0.84443885
0003a0 bb 14 84 3e 57 a6 ab be 5f 05 61 be ae ea 11 bf
       0.25797066 -0.33525345 -0.21974705 -0.5699872
0003b0 de fd 0b bf 2d 90 3c 3e fc 54 df be 11 36 25 be
       -0.54684246 0.18414374 -0.43619525 -0.16133906
0003c0 7d 75 8d be de ca a3 3e c3 97 26 bf d9 5e 09 3d
       -0.276287 0.31990713 -0.6507532 0.03353772
0003d0 71 80 24 3e 79 f7 8e 3e 74 40 63 be 36 4e 24 3d
       0.16064622 0.27923182 -0.22192556 0.04011365
0003e0 39 d3 ef be 9c 91 0c be dd 6b 54 be b0 39 4d 3e
       -0.46840838 -0.1372742 -0.20744272 0.20041537
0003f0 e8 ba 41 bf fb b6 7d be 6c 02 00 bf 8e f8 be bd
       -0.7567582 -0.24776833 -0.50003695 -0.09324752

fc2.bias f4 [64]
000000 7e ec 96 3d bf 89 a6 3d 88 a2 10 bd 61 87 8d bd
       0.07369326 0.08131742 -0.035311252 -0.06910587
000010 47 b2 18 bd c9 d4 57 be 86 a1 37 be 61 9a 8b 3c
       -0.037279394 -0.21077265 -0.1793271 0.017041387
000020 05 60 2c be 92 ac 17 3f 22 4e 9c be e5 84 03 3e
       -0.16833504 0.59247696 -0.3052836 0.12843664
000030 54 4b ec 3c 3b c7 4f be f9 14 0a be fa 96 3b 3d
       0.028844513 -0.20290844 -0.13484563 0.04579828
000040 c7 98 a3 be 7b d4 30 3e f0 4c d8 bd 9c 7a dd 3d
       -0.31952497 0.17268555 -0.1056155 0.108144015
000050 68 9e e2 3c 32 4c 1b 3f aa c8 1c be 92 b8 a3 be
       0.027663425 0.6066314 -0.15310922 -0.31976753
000060 05 77 c1 be a3 32 89 bd 57 bd 09 be fb e9 23 3c
       -0.37786117 -0.06699111 -0.13451134 0.010004516
000070 61 e8 34 be 9b 30 22 3b 4b 7a 83 be 8a d9 7b 3c
       -0.1766677 0.002474821 -0.2567924 0.01537169
000080 88 4e 33 bd d3 a2 de 3e 80 42 cb 3d c4 23 dc 3d
       -0.043776065 0.434836 0.09924793 0.10749009
000090 6f db 99 be 49 ff 1f be 92 9f c3 bc 44 bc 17 be
       -0.30050227 -0.15624727 -0.0238798 -0.14817911
0000a0 99 3a 43 be fc 82 43 3f 4d d2 9f 3e fc e6 3d bd
       -0.19065322 0.7637174 0.31215134 -0.046362862
0000b0 62 17 ca 3c 3f a4 91 be 40 53 40 3e b6 b0 82 be
       0.024669353 -0.28445622 0.18781757 -0.25525445
0000c0 dc ad 20 3c 81 d0 26 be 2f cf b0 be 79 52 c0 3e
       0.009807076 -0.16290475 -0.3453307 0.37562922
0000d0 25 ee 6a bd e0 55 05 be bb 08 56 be 1d ea 0d be
       -0.05735602 -0.1302104 -0.20901768 -0.13858838
0000e0 bb 25 a6 be 34 b3 2f be 81 02 ad bd 82 f0 d0 bd
       -0.3245066 -0.17158204 -0.08447743 -0.10202123
0000f0 9c c8 b2 bd f2 7b bf 3e e7 02 94 3d 53 04 08 3d
       -0.087296695 0.3739925 0.07227116 0.03320725

fc3.weight f4 [4, 64]
000000 03 a4 c7 3e fe 41 61 3e c9 bd 24 3e 7b bd d7 bd
       0.3899232 0.2199783 0.16088022 -0.105341874
000010 f6 d3 c7 3e 17 5c 88 bc e0 1c 36 3e a7 50 67 be
       0.390289 -0.016645474 0.17784452 -0.2258936
000020 46 74 23 3e 06 eb 37 3e e6 18 12 be 7b 3d af 3c
       0.15962324 0.17960748 -0.1426731 0.02139162
000030 a3 91 3e 3e 83 84 f8 3e 14 4f e0 3e e3 52 86 3c
       0.18610243 0.48538598 0.43810332 0.016396945
000040 b9 b1 7f be 90 01 5d 3e 22 54 1c 3e 04 25 c5 3c
       -0.2497014 0.21582627 0.15266469 0.024065502
000050 f9 65 81 3e ca 49 3e 3e 89 d4 9f 3e 88 88 45 be
       0.2527311 0.18582836 0.3121684 -0.19290364
000060 44 f0 73 be 7f db 2c be 82 5a df bd 23 9e c0 bd
       -0.23822123 -0.16880606 -0.10905935 -0.09405162
000070 6a 37 94 3e 75 84 ab 3d f1 82 45 be f9 6d 43 3e
       0.28948528 0.083748735 -0.19288231 0.1908492
000080 da f5 18 3d 24 59 3b 3e c7 4f d3 3e 6a 14 f7 3e
       0.037343837 0.18295723 0.41271803 0.48257762
000090 5f ee b0 bd fe 3f 0c 3e 6a be 47 bd 39 e5 12 be
       -0.08639216 0.13696286 -0.048765577 -0.14345254
0000a0 78 23 b7 3d 09 a1 72 3e 28 11 13 be 10 15 e0 be
       0.08942312 0.23694243 -0.14362013 -0.4376607
0000b0 00 12 b8 3e d0 cb 62 be 02 39 c7 3d b0 e1 51 3e
       0.35951233 -0.22148061 0.0972767 0.20496249
0000c0 e1 40 cf be 01 57 88 bd 42 b6 85 be cd 8f 58 3e
       -0.40479186 -0.0665722 -0.26115614 0.21148606
0000d0 5b bb e5 3d 55 91 31 be 79 b9 82 3d eb 81 ac be
       0.11217376 -0.17340596 0.06383032 -0.3369287
0000e0 d1 47 c2 be 88 51 59 3e b1 3f 1b 3e d6 f7 40 3e
       -0.37945417 0.21222508 0.15161015 0.18844542
0000f0 c6 73 1b 3d a0 db 91 3d 55 f2 5a 3e d5 d9 0c 3e
       0.037952207 0.07121968 0.21381505 0.13754971
000100 a9 5f 99 3e 1d ae 59 3e 5a 78 4f 3e b2 75 72 be
       0.29955795 0.21257825 0.20260754 -0.2367771
000110 7e 2a d1 3e cd 5b 57 bc c8 b3 ce bc d0 a6 09 3e
       0.4085273 -0.013144446 -0.02523221 0.1344254
000120 13 ed d6 be 57 85 e6 3d 69 88 04 be 93 bd 0d 3e
       -0.41977748 0.11255901 -0.12942661 0.13841848
000130 1a 87 43 3e aa 86 c1 3e e8 70 dc 3e b9 75 b7 3d
       0.19094506 0.37798053 0.4305489 0.08958001
000140 22 cd 99 be 55 0c 7b 3e d7 33 26 bd a5 5f ed 3d
       -0.30039316 0.24516423 -0.040576782 0.11590508
000150 86 02 b6 3e 4f 02 3d 3e 97 32 4f 3e 9d 3e 44 be
       0.355488 0.18457912 0.20234142 -0.1916451
000160 1b 19 f1 bd 9c 6b 84 3c cc 1e b4 3c 8f 87 a8 3d
       -0.117723666 0.016164593 0.021987341 0.08228981
000170 52 56 d0 3a 7c 18 f7 3e 58 16 52 bc a0 87 2e 3e
       0.0015894866 0.48260868 -0.01282271 0.17043924
000180 77 ff fd 3d e5 1b a0 3d 09 24 9d 3e 70 66 84 3e
       0.12402242 0.078178205 0.30691555 0.25859404
000190 6c 62 e5 3d 68 71 cb 3d 90 21 9d 3c a3 cb 09 3f
       0.11200413 0.0993374 0.019181043 0.5382635
0001a0 14 e7 2b bd ac 8b 80 3e 5e f8 ea 3d 13 a1 58 3e
       -0.04196842 0.2510656 0.114731535 0.21155195
0001b0 54 71 b2 3e 1a b2 27 be 56 19 be 3d 41 1f 8a be
       0.34852087 -0.16376534 0.09282176 -0.2697697
0001c0 5f 98 68 bc 3d ec 46 bd 3b 7c 5c be 2d 04 26 3e
       -0.014196484 -0.048565138 -0.21531765 0.1621253
0001d0 05 5d ac 3d 1f 07 16 3e bd d2 8e 3d a9 24 a2 3d
       0.084161796 0.14651154 0.06973789 0.079171486
0001e0 14 d1 a4 bd 99 6b 23 3d 8c 59 c2 3e c0 aa 75 3e
       -0.08047691 0.039897535 0.37958944 0.23990917
0001f0 5c 64 5c be 97 a0 34 3d cd 52 7e bd 89 af 1a 3e
       -0.21522659 0.044098463 -0.062090684 0.15106024
000200 74 f5 9f 3e 37 a3 ca 3d af 5b d3 3e c1 81 3c 3f
       0.31241953 0.09894412 0.41280887 0.7363549
000210 73 ee f0 3e 6c 17 a1 bc c9 8a 24 3e 2b af e1 bc
       0.47056922 -0.019664489 0.16068567 -0.027549347
000220 39 7d fa bd 3b d0 f5 3d 2a 3c 90 3e 59 29 73 3e
       -0.122309156 0.120026074 0.28170902 0.23746242
000230 bf e8 9d 3e f9 93 21 be ea 27 ba 3e 88 be 99 3e
       0.30841634 -0.15779103 0.36358577 0.30028176
000240 e7 9d ae be 22 87 b1 3d 17 df a1 be dc 8c 20 3d
       -0.34104845 0.08668353 -0.31615517 0.039196834
000250 f5 6d b6 be 18 47 75 3e 6d bf 70 bf 69 bc a6 3d
       -0.35630766 0.23952901 -0.9404209 0.08141405
000260 52 c9 ed bd ad cd 81 be 23 cb 36 be 66 90 28 3e
       -0.116106644 -0.2535223 -0.17850928 0.16461334
000270 55 a6 98 3e a4 af f8 3e 20 5a ca bd 75 28 17 3e
       0.298144 0.48571503 -0.09880471 0.14761527
000280 ff aa 21 be 9e 79 1f 3e 8f ae 94 3e 76 d4 1f 3e
       -0.15787886 0.15573737 0.29039428 0.15608391
000290 75 9c a3 bc dc ef 16 3e e2 19 b2 3d 1a 2a 74 be
       -0.019972065 0.14739937 0.08696343 -0.23844185
0002a0 35 fb e3 bd 64 32 8b 3e b5 82 64 3e b4 19 ad 3b
       -0.11131898 0.27186882 0.22315486 0.005282605
0002b0 5c 34 fb 3d 3b 81 80 be f0 de 57 3e 1d 27 c8 bd
       0.12265846 -0.25098595 0.21081138 -0.09773085
0002c0 9d a0 53 bd ef ad a7 3d f3 87 c6 be 16 75 88 3e
       -0.051666845 0.08187472 -0.38775596 0.2665183
0002d0 b3 fb 6e 3e 8e 4a 14 bf 5d 2f a6 3e cb fd fc bd
       0.23338203 -0.5792626 0.3245801 -0.12353095
0002e0 39 6a bb 3c 88 20 da 3d 40 90 76 be cd 94 2a 3e
       0.0228778 0.10650736 -0.24078465 0.16658325
0002f0 17 11 f8 be 51 40 38 3e fb d2 a8 be 96 fa de bd
       -0.4845054 0.17993285 -0.32973465 -0.10887639
000300 62 60 a0 3e b0 70 05 3e c7 48 fa be 2d ba 02 3e
       0.31323534 0.13031268 -0.4888365 0.12766333
000310 f6 44 0e 3f eb ec 68 3b b1 9f 86 bc 8a 90 d3 3e
       0.55573976 0.0035541605 -0.016433569 0.41321212
000320 63 fd 1a be b0 bb 62 3e 8c 70 54 3e 6a 69 f5 bc
       -0.15135722 0.2214191 0.20746058 -0.029957492
000330 cd 6b 5c 3e f5 1c 59 3e 7b e5 f2 3e f6 8c b6 bd
       0.21525498 0.21202452 0.47440705 -0.08913605
000340 a7 97 b1 be 9d eb ff 3d d6 8a 49 be 96 d2 52 3e
       -0.34686014 0.124961115 -0.19681868 0.20588145
000350 91 91 ba 3e 5a ff 1d 3e 1c 7d 2b be 16 18 1e be
       0.36439183 0.1542944 -0.16746944 -0.15438876
000360 57 bb 60 be 3b 0c b0 bc 8c d9 e7 3b d6 64 81 3e
       -0.21946464 -0.021490207 0.007075494 0.25272244
000370 5e 0e 0b bf 1e 56 3f be 4c 4d 19 be c3 ab 87 3e
       -0.543188 -0.18685195 -0.14970893 0.2649823
000380 70 86 d0 3a bb 15 13 3e 21 85 c4 3d e2 64 dd 3d
       0.0015909206 0.14363758 0.09595705 0.108102575
000390 af 60 46 be eb 87 c0 3e a9 41 3f 3e dc 6b 85 3e
       -0.1937282 0.37603697 0.18677391 0.26058853
0003a0 f2 68 50 bb e1 5d 74 3e b7 92 2c 3e b3 20 fc be
       -0.0031800834 0.23863937 0.16852842 -0.49243698
0003b0 7c 59 ca 3e 91 45 bb be 95 c9 8d 3d 7d 9b c5 3e
       0.39521396 -0.36576512 0.06923214 0.3859519
0003c0 6a 7a a1 3d 12 57 cc be e7 89 15 bd 0f 24 33 3e
       0.07884677 -0.3991018 -0.036508467 0.17494224
0003d0 df 0a 69 bf 9a da c4 3c d9 03 bc 3e 88 1b 17 be
       -0.9103221 0.024030019 0.36721686 -0.14756596
0003e0 2e 96 4d be 14 52 4b 3c f2 4a f1 be eb 7e aa 3d
       -0.2007682 0.012409706 -0.4712749 0.08324989
0003f0 04 12 ab be 80 bc 28 3e 02 ec ec be a2 c1 16 be
       -0.33412182 0.16478157 -0.4627381 -0.14722303

fc3.bias f4 [4]
000000 bd 61 0e 3f e4 6d fa 3e fe 69 b9 3e 82 34 d6 3e
       0.55617887 0.48911965 0.36213678 0.41836935
